liver_disease_model.tflite (tflite, 13336 bytes, 5 tensors)

arith.constant f4 [1, 32]
00000000: ed11 933e 103c f63d 790c f33d 2a0e 52be
00000010: 0846 c7bd 2d23 adbe 23ee d3be 83b3 32be
00000020: 2473 eabd f01e ce3e 8388 cbbe a29d 003e
00000030: 00fe a23d 809b b63e a61a c2be 4e3d 1abe
00000040: a620 c43e 5f1d 673e 978d b83e 82d6 6fbe
00000050: c240 74be a4ee bb3d 5adb 933e d052 623e
00000060: f1e7 4f3d 71c0 5dbe b3fa a83e 67b6 013e
00000070: 3f98 b33e 69f9 51be ece9 7d3e 44de fe3d
0.28724614 0.12023175 0.11867613 -0.20513216 -0.09730154 -0.338159 -0.4139262 -0.17451291
-0.114477426 0.40257978 -0.39752588 0.12560132 0.07958603 0.35665512 -0.37910956 -0.15062448
0.3830616 0.22569798 0.36045524 -0.23421672 -0.23852828 0.091763765 0.2887829 0.22101903
0.050758306 -0.21655442 0.33003768 0.12667237 0.35077092 -0.20505299 0.24796265 0.124447376

arith.constant1 f4 [32, 64]
00000000: 81e8 68be 74b9 8dbd dce1 63be d8d1 adbd
00000010: 5f36 6bbe 4303 5cbe ac86 06be 879b adba
00000020: 8f38 133e 2807 b0bd c47c 10be c099 b4bd
00000030: 60b5 d9bc f0af 97bd 443e 3f3e c3e5 7bba
00000040: 3fd0 2d3c 5cea 0b3e a862 0a3e 03be d93d
00000050: e52e 0c3e 5571 023e 0ac3 ffbb 846c 0a3e
00000060: 6b78 81bc cf6f 173e 5448 71bc b41a 79be
00000070: 7815 b4bd 68f0 1b3e 0c01 07be 8d36 4abe
00000080: 547e 44be f7ec df3d 98c6 ad3d b89e 6b3e
00000090: 00a2 ea3c fe0c 6ebe 5c82 28be 2d05 99bd
000000a0: eaca 493e b5db 043d 6bc0 86be 78b9 483e
000000b0: e646 76bd d434 07be 1262 1a3e 1e2f 353e
000000c0: 2530 f6bd f89e 553e 7fba b6bd 5c37 3d3e
000000d0: 4810 ffbd 0e92 cabd b53e 85be b670 973d
000000e0: 1b52 853c 75fc 2f3e 6b44 293e c179 4f3e
000000f0: 002d b83d 56dd 3c3e 168c dbbb 0afc 7dbe
00000100: 7309 0b3e 8d9a 683e 2575 84be 8857 9abd
00000110: 8441 0cbd dc54 09be 7ac9 da3d 66ed 393c
00000120: 7816 03be b083 5d3d 8000 cbbd 3013 32bd
00000130: 1039 79bd a44b 1e3e d29d 0e3e bbe6 6cbe
00000140: b375 abbc 4d86 943d 0087 85bd 6c60 e6bd
00000150: b747 5c3e e6d5 3abe bcdb 593e d4c9 103e
00000160: ab43 4a3c 13ae 8f3d c0ba 523e 4cbc e8bc
00000170: 892e 52be b0c5 59be be6a 863e a5c5 bebd
00000180: 00f6 703c 2630 79be b640 1b3e 4cb0 3c3e
00000190: c4ef 39be c3e4 e73c aa66 0e3e 024e 503e
000001a0: 2634 d1bc 9229 89bd d36a 99bd 404c 7dbd
000001b0: 7867 44bd 9c1d 53be c50e 83be 8cb4 c43d
000001c0: 2caa 64be d027 83bd 4fd0 953d e897 0d3e
000001d0: dcd4 58be 772b 223e fabd 9abd 4670 b8bc
000001e0: 4e49 99be d54f 293d 6a65 80be 9b1c 6e3e
000001f0: 2450 d8bb 5e0e 5e3e c280 0f3e ce15 c2bc
00000200: 26ee abbd 66d9 323e f1dd 523e 4c4d 013e
00000210: c04e 2b3c e74c 703e f670 633e 7d5f fe3d
00000220: 4a7e 17be c8b3 723e 40d7 123c d045 7bbe
00000230: 6487 36be 00d5 2ebd ec43 893c f39c 323e
00000240: 05f6 63be 557f 68be 100b 63bd 4b53 503c
00000250: 195c 183e c1d3 51bd 2de9 3dbe 88d9 c6bd
00000260: 3d3d 183e d191 00be f9f6 463e 28c7 a33c
00000270: f0d4 95bd 24e7 583e 767b 0f3e 7a79 a73d
00000280: 20a6 18be b4c7 4a3b b915 043e 6878 093e
00000290: 4039 03be 6d88 2fbe 28e6 d33c f67e a4bd
000002a0: 60e8 2bbe 40e7 bdbc 0a81 d1bc 58f2 a03d
000002b0: 137a 373e a08d de3d dadb eabc ab85 0f3e
000002c0: da6e 7f3d c0df f7bc 251e 8dbc 0441 35be
000002d0: c067 1cbd 67c4 6fbe 708c 6b3c 41e4 7cbe
000002e0: 8012 4fbc eb87 84be f48d 02bd 1479 4bbe
000002f0: b01a 1bbd e570 b33b f823 823d 875a 23be
00000300: 84c3 4c3d 789f 92bd cd9d 0fbe 5855 eebd
00000310: 5ff4 3fbe ebcc 43bd 2a64 9dbc 19b7 153d
00000320: cffe 653e dc3f 58be e476 593e e080 7fbe
00000330: 8004 f1bd 50de f33d 7399 31be 027e cebd
00000340: 7d1e 60be b337 6b3e f8e4 5abe c4b7 7b3e
00000350: 9464 ffbd 8cf2 c73d 038b 1d3e 70d3 b4bd
00000360: 5798 603d 19e5 3fbe 1c5c b9bd fa17 e6bc
00000370: b328 54be 68e6 fc3d 46a6 a63d 6d23 5ebd
00000380: 200c a93d abf0 40be 91c8 36be 1021 7abe
00000390: 20d1 44bd 2f44 9e3d 0e45 18bd 997a 693d
000003a0: 07fd 213e ebce 513e 9d59 3abd 70c6 c03d
000003b0: 778c 82bd 58fd acbd f9e7 5a3e 1ace c6bc
000003c0: 113c 0bbe 604e ec3d 62b0 693e ec41 74be
000003d0: 4cda 703e d41f e3bc a0a8 3c3e c19b f63c
000003e0: 8d3e 7bbd 60c6 ea3d ada2 473e 5a00 813e
000003f0: ad48 383c 1411 07be 23e8 2f3e bb8e 913b
-0.22744943 -0.06920138 -0.22254127 -0.0848729 -0.2296996 -0.21485619 -0.1313731 -0.0013245203
0.14377044 -0.08595115 -0.14110094 -0.08818388 -0.026575744 -0.07406604 0.18676096 -0.00096091273
0.010608732 0.1366362 0.13514197 0.10631945 0.13689764 0.12738545 -0.007805233 0.13517958
-0.01580449 0.14788745 -0.014726717 -0.24326593 -0.08793157 0.15228426 -0.13183993 -0.19747372
-0.19188815 0.10933869 0.084851444 0.23009765 0.0286417 -0.23247144 -0.16455978 -0.0747169
0.19706312 0.03243609 -0.26318678 0.19602 -0.060126208 -0.13203746 0.15076473 0.17693755
-0.120209016 0.20861423 -0.0892229 0.18478149 -0.12454277 -0.09891139 -0.26024404 0.07394545
0.016274503 0.17186148 0.16530006 0.20261289 0.08992958 0.18443808 -0.006700049 -0.24803177
0.13577823 0.22715206 -0.25870624 -0.075362265 -0.034242168 -0.13411278 0.1068296 0.011348104
-0.1280154 0.054080665 -0.09912205 -0.04347533 -0.060845435 0.15458542 0.13927391 -0.23134892
-0.020930147 0.07252178 -0.0651989 -0.1124886 0.21511732 -0.18245658 0.21275228 0.14139491
0.012345235 0.07015624 0.20579052 -0.0284101 -0.20525564 -0.21266818 0.26253313 -0.093150415
0.0147070885 -0.24334773 0.15161404 0.18426627 -0.1815787 0.028307324 0.1390635 0.20342258
-0.025537562 -0.06697382 -0.07491078 -0.061840296 -0.047950238 -0.20616764 -0.25597206 0.09604749
-0.2233054 -0.06404078 0.07315122 0.13827479 -0.2117495 0.15836893 -0.075557664 -0.022514474
-0.2993874 0.0413359 -0.25077373 0.232531 -0.0066013504 0.21685168 0.14013961 -0.023692038
-0.083950326 0.17465743 0.20592476 0.12627143 0.010455787 0.23466836 0.2221106 0.12420557
-0.14794269 0.23701394 0.008962452 -0.2453835 -0.17825085 -0.0426836 0.01675602 0.17442684
-0.22261818 -0.22704823 -0.055430472 0.012715171 0.14878882 -0.051227335 -0.18545981 -0.097094595
0.1486711 -0.12555625 0.1943015 0.019992426 -0.07316005 0.21181923 0.1401194 0.08177467
-0.14907122 0.0030941786 0.12898912 0.13424838 -0.12814808 -0.17141886 0.025866583 -0.080320284
-0.16787863 -0.023181558 -0.025574226 0.078587234 0.17917661 0.108668566 -0.028669287 0.14015834
0.062361576 -0.03025806 -0.017226288 -0.17700583 -0.03818488 -0.23414765 0.014376745 -0.24696447
-0.012638688 -0.25884947 -0.03187366 -0.19870406 -0.037867248 0.0054761046 0.06354517 -0.15952502
0.049991146 -0.071593225 -0.1402504 -0.11637372 -0.18745564 -0.047802847 -0.019212801 0.03655157
0.22460483 -0.2111811 0.2123676 -0.24951506 -0.117684364 0.11907637 -0.17343692 -0.10082628
-0.2188663 0.22970466 -0.21376407 0.2458182 -0.12470356 0.09763059 0.1538506 -0.08829391
0.054832783 -0.18739738 -0.090507716 -0.028087605 -0.2071865 0.12348634 0.08137183 -0.054233003
0.08254266 -0.18841808 -0.17849948 -0.24426675 -0.048051 0.07727849 -0.03717523 0.057001684
0.15819179 0.20489089 -0.045495618 0.09412849 -0.06374448 -0.08446759 0.21377553 -0.024268199
-0.13597132 0.11538386 0.22821191 -0.23853272 0.23520774 -0.027725138 0.184237 0.030103566
-0.06133895 0.11463618 0.1949565 0.2519558 0.011247796 -0.13190109 0.17178397 0.0044420636

sequential_1/dense_1_2/BiasAdd/ReadVariableOp f4 [32]
00000000: f765 93bd 7535 c0bd 7964 64bc 7cfa 4d3e
00000010: 0000 0000 0af6 49bc 8a69 503e 5bf6 c33d
00000020: 8f65 483e c73e 5bbe 0000 0000 d007 4ebe
00000030: f100 54be 710a 51be 7d0a 513e 0000 0000
00000040: bef4 51be e470 52be db37 80bc 0296 4f3e
00000050: f4fe 5c3e 4205 96bc 0000 0000 0000 0000
00000060: 796a d5bd 7a0b 4e3e 6c00 51be 0abb 88bb
00000070: 622c 1ebe 53d6 95bb 0000 0000 6cae 4fbe
-0.071971826 -0.09385196 -0.01393997 0.20115083 0.0 -0.012326727 0.2035276 0.09568473
0.19569992 -0.21410666 0.0 -0.20120168 -0.20703484 -0.2041414 0.20414157 0.0
-0.20503518 -0.20550877 -0.015651634 0.20272067 0.21581632 -0.018313054 0.0 0.0
-0.10420699 0.20121565 -0.20410317 -0.0041726874 -0.15446618 -0.0045726686 0.0 -0.2028138

sequential_1/dense_1/BiasAdd/ReadVariableOp f4 [64]
00000000: fd26 2e3e 87dd 06be 70f1 763e 0000 0000
00000010: 3ef4 4fbc 5fa6 6fbe 9e58 3abe d306 56be
00000020: 2a02 59be 0000 0000 0000 0000 0000 0000
00000030: 0000 0000 0000 0000 9366 353e 9f27 5a3e
00000040: c883 64be 2037 2d3e 0000 0000 38a1 59be
00000050: ec53 443d 9b95 30be d5d3 523e 0000 0000
00000060: a5f1 81be 4331 053e 284c 88bb 8bb7 423e
00000070: 93f5 2fbe 0000 0000 7af2 22be 6f23 2d3e
00000080: 0000 0000 7d45 353e a566 35be 0000 0000
00000090: 0000 0000 ef37 5abe 800f 3fbe e5ef 47be
000000a0: faad dfbc f920 e33c 8555 9f3e 0000 0000
000000b0: 5023 553e 0000 0000 d5fa 443e c801 58be
000000c0: 217f 083e 0000 0000 707c 2d3e 0000 0000
000000d0: 0000 0000 5a3d e43d cdb5 053e abac 3abe
000000e0: b404 473d 8331 e63d a8ea 5b3e 4f1f 673e
000000f0: c43b debd 57ad 3dbe 34cf 023e 5df5 093e
0.1700706 -0.13170443 0.24115539 0.0 -0.012692509 -0.2340331 -0.18197867 -0.2090104
-0.21192232 0.0 0.0 0.0 0.0 0.0 0.1771491 0.21304177
-0.22315896 0.1691556 0.0 -0.21252906 0.047931597 -0.1724457 0.2058862 0.0
-0.25379673 0.13007073 -0.004159469 0.19015329 -0.17183523 0.0 -0.1591281 0.16908048
0.0 0.17702289 -0.17714937 0.0 0.0 -0.213104 -0.18658257 -0.19525106
-0.027304638 0.027725684 0.31119934 0.0 0.20814252 0.0 0.1923631 -0.2109443
0.13329746 0.0 0.16942 0.0 0.0 0.111445144 0.13057633 -0.1822993
0.04858847 0.11239912 0.21476233 0.22570537 -0.10851243 -0.18523155 0.12774354 0.13472505

sequential_1/dense_1/MatMul f4 [64, 10]
00000000: c99f 553e 219e fe3c 2a9e 523e 921c 053e
00000010: e27a 1dbe d35a c1be aa5a 21be 4ec9 b8bd
00000020: d1b1 b6be 9496 a93d c75e 19be cf39 103e
00000030: c261 80bc 18c9 2bbe 13c8 ed3e 64b5 8c3b
00000040: f7be 5ebe fd66 7c3e 59cc 063e 0a4d 313e
00000050: 9a1d 15be 57c5 50be 7648 933e 882b 8bbe
00000060: ed10 f0be 8000 61be f49b 67bd e5df fabd
00000070: 2281 39be e955 663e d508 68be ae9f e5bd
00000080: 005c 683c 765f 57be e6cf 643e 3ecc dfbd
00000090: b23e b2bd 2a14 4b3e ecb5 45bd f6a5 11be
000000a0: bc0d 75bd 6134 30be 5221 96be 581f 433e
000000b0: ebad 5d3e a2d0 1d3e 1042 12be cf42 403e
000000c0: 735e 7c3e d9e3 123d 5bd2 0c3e 09d1 803e
000000d0: 54a3 f9bc 3673 85bd b783 673e 3234 993d
000000e0: cf8c 43be 5835 653a e1b3 0a3f e75b 1fbd
000000f0: 15fc 26bc d170 da3c a57d 683e 2034 d23d
00000100: b0cf 7e3d 82b1 42be 5e31 793e b94e d9bd
00000110: 65c1 4e3e 01f6 22bd 55de 0e3e 24a3 833d
00000120: 061b 6b3e 3681 893d 3863 5c3e be29 f23d
00000130: 2fd4 6d3e 2bb0 953d 52a7 383d 6275 33be
00000140: bc29 60bb b24c be3c 0cc6 2d3e 1d49 3f3e
00000150: 3065 e03e f749 6c3e 9bac d1bc ea25 013d
00000160: 48ef 8e3e 6a50 2e3e d3a0 63be 00d9 10bb
00000170: 10b6 583e 2005 65bd bf49 863e e2d8 273e
00000180: d57a 863e 1829 bbbd 9016 09be 2605 52be
00000190: 6c37 42be 9ce4 b73d 5031 84be 20ff cabc
000001a0: 22b8 36be b8ca 083d c62f 793e 60de 393c
000001b0: 8ad8 753e b8fd dfbd 80d6 68bb 20b7 1c3e
000001c0: c098 7b3c 6862 65be d418 dbbd 1420 1e3e
000001d0: 0062 7abc 7097 593d e07d 22bc 2a74 2dbe
000001e0: 9ce9 05be af80 903e c8ee 413d 62d3 703e
000001f0: 464c 1e3e 2f50 85be d0e3 dcbc e0df 973d
00000200: ccba 7dbe d7c9 1dbe 671c 09be b86c 483e
00000210: 6591 82be 60aa d2bd 4009 cabc 414c 883e
00000220: d048 4e3d 2827 4d3d 5e74 c7bd c806 343d
00000230: a1f4 4d3e 6487 6fbb 3cdc 153e 2b39 513d
00000240: 56dc 963d 7af5 48be 6b9f bf3c 6260 2ebe
00000250: f393 153d 2756 73be 4c0a 7d3d 6b68 0fbe
00000260: 9242 2c3e 91ff a7be c4ca dfbd 2128 9c3d
00000270: 87d7 febd ee60 6fbd 9cf6 7fbe f97a a7bc
00000280: 0695 8abe 2604 823e 41c9 d63d 923a 663d
00000290: 6d04 df3e 6944 f33d 1e6d 5c3e 3a69 aa3c
000002a0: ae57 683e 8030 283e d46a 6ebc 600c a53d
000002b0: c7df 59be a144 07be 1081 2ebe fc84 b2be
000002c0: b5e1 8c3e fd5a c2be 3e9f bfbe 9ef2 383e
000002d0: ac3e 46be de7f 57be 68c4 31bd 72b9 643e
000002e0: 6691 a8bd 351c 8cbe 8a4d 293e 6018 a8bd
000002f0: cc66 13be 66a7 f4bd 7267 803e aa6a cf3e
00000300: 1f84 203d 8c67 16bb c053 903e 6999 6cbe
00000310: 1207 80be 0c01 a13e a52a da3e bb22 5b3e
00000320: 40f9 8f3d ef34 eabd 3f51 d63d 67cf 01bd
00000330: 1710 4b3e 7bb4 073e 4d43 4ebd 0339 123e
00000340: b464 b4bc 4461 23bd 6359 87be 111e 9a3e
00000350: 2776 803d 7f15 233d 9c53 e93d f9e5 08be
00000360: 2e12 143e 3963 bfbc eee6 68bd ccb6 7e3e
00000370: d5f0 1f3c 3ab7 d1bd cd92 523e 1093 0a3e
00000380: 0c40 dfbe fb9e 403d b85a 5a3e 56c3 b53c
00000390: f9e3 04be 58d4 b53d 5673 87be 7020 b03d
000003a0: afdc 87be 42a3 7c3e 5a42 1dbe e925 74be
000003b0: ec8b 68be 0cdb 133e 82a0 2f3e 8057 a63b
000003c0: 79b9 8c3d 23c5 0d3e 69e9 1c3e 9109 3f3e
000003d0: 40e3 8a3d d0c5 1c3d 3afd a3be f0e6 013d
000003e0: 8cc2 083e e0c4 d1bd 4600 8d3e a8d9 473d
000003f0: 2bea 963d 6018 58bd c0eb f8bd 4ea0 5d3e
0.20861734 0.031081261 0.20568147 0.1299918 -0.15378907 -0.37764606 -0.15757242 -0.09022771
-0.35682538 0.082806736 -0.14977561 0.14084552 -0.015671615 -0.1677593 0.46441707 0.0042940844
-0.21752535 0.24648662 0.1316389 0.17314544 -0.14562073 -0.20387779 0.2876622 -0.2718165
-0.46887913 -0.21972847 -0.056545213 -0.12249736 -0.18115667 0.2249371 -0.22659619 -0.11212097
0.014182091 -0.21032509 0.22344932 -0.10927628 -0.087033644 0.1983191 -0.048269197 -0.14223465
-0.05982755 -0.17207481 -0.29322296 0.19054925 0.21648376 0.15411618 -0.14283013 0.18775485
0.24645405 0.035861824 0.13752119 0.2515948 -0.030473389 -0.06516115 0.22608839 0.074806586
-0.19096683 0.00087436056 0.54180723 -0.038906004 -0.010191937 0.026665123 0.2270418 0.10263848
0.062209785 -0.19013026 0.24335238 -0.10610718 0.20190962 -0.03978539 0.13952 0.06427601
0.22959527 0.06714098 0.21522224 0.11824368 0.23225473 0.07308992 0.045081444 -0.17525247
-0.0034204563 0.02322993 0.1697008 0.18680234 0.438272 0.2307509 -0.025595 0.0315303
0.27916932 0.17022863 -0.22229318 -0.0022101998 0.21163201 -0.05591309 0.2622814 0.16391328
0.26265588 -0.091386974 -0.13387513 -0.20509776 -0.18966454 0.08979151 -0.25818872 -0.024779856
-0.17843679 0.033396453 0.2433463 0.011344522 0.24008384 -0.10937065 -0.0035528243 0.15304232
0.015356243 -0.2240082 -0.10698095 0.15441924 -0.015282154 0.053122938 -0.009917706 -0.16938844
-0.13077396 0.28223178 0.04734686 0.23518136 0.15458784 -0.26037738 -0.026964098 0.07415748
-0.24778289 -0.15409027 -0.13389741 0.19572723 -0.25501552 -0.10286403 -0.024662614 0.26620677
0.05036241 0.05008617 -0.09738992 0.04395178 0.2011285 -0.0036549205 0.14634794 0.05107991
0.073662445 -0.19624892 0.023391446 -0.17028955 0.03651805 -0.23763333 0.061777398 -0.14004676
0.1682227 -0.3281217 -0.10927346 0.076248415 -0.12443452 -0.05844205 -0.24996418 -0.02044438
-0.2706682 0.2539379 0.10487605 0.0562082 0.43558064 0.118782826 0.21526 0.020802129
0.22689697 0.16424751 -0.014551837 0.08059001 -0.2127677 -0.13209774 -0.17041421 -0.34867084
0.2751595 -0.37960044 -0.3742618 0.18061301 -0.19359845 -0.21044871 -0.0434002 0.22336367
-0.082308576 -0.2736527 0.16533485 -0.08207774 -0.14394683 -0.11945991 0.25078923 0.40511066
0.0391885 -0.0022949902 0.28188896 -0.23105396 -0.25005394 0.3144611 0.4261066 0.21399967
0.070299625 -0.114358775 0.10464715 -0.031691935 0.19830357 0.13252442 -0.05035715 0.1427956
-0.022020675 -0.03988768 -0.26435384 0.30101064 0.06272536 0.039815422 0.113929 -0.13368978
0.1446006 -0.023362743 -0.056860857 0.24874419 0.009762009 -0.10240026 0.20563813 0.13532662
-0.4360355 0.047026616 0.21323669 0.02218787 -0.1297759 0.08878392 -0.26455182 0.08599937
-0.26535556 0.24671653 -0.15357342 -0.23842587 -0.22709626 0.14439029 0.17151073 0.005076349
0.068713136 0.13844733 0.15323414 0.18655993 0.06781626 0.038274586 -0.32029134 0.03171438
0.13355464 -0.10242629 0.2753927 0.048791558 0.07368883 -0.05275762 -0.12154341 0.21643183
